data (2).pth (torch, 13503 bytes, 6 tensors)

l1.weight f4 [8, 192]
00000000: ea91 053e 84bb ad3e 91ee 1abf 746f c4bd
00000010: 4913 5ebf 19a8 b6bf 066d 9dbe 7250 e7be
00000020: 21d1 8dbe 8343 c3be 12d1 e1be 2db9 82be
00000030: a9d6 b43e c492 6abf 0822 f5bd d43a c3bd
00000040: 1ecd e1be 19b2 8d3e b90c 963f 1fca 903f
00000050: 1a4e 96bf e703 963f b432 ee3e 8edf 843f
00000060: be71 e1be 6344 8b3f 490c a33f ba06 08bf
00000070: ef8e 75be ed8b 0abf 0c39 0ebf d230 f4be
00000080: d84b b9be 5926 5dbf 5980 4bbf 18ba 8cbd
00000090: c29f 8b3f b0ba 9dbe dc23 453d 243c 603f
000000a0: fd6f 33bf 5bef a53f e2fb 9ebe 8e80 a73e
000000b0: 7a47 693f 23a0 903d beba 143f e3d9 203f
000000c0: bac3 e1be d017 4f3e ffe0 a83e fa39 9e3f
000000d0: 4e36 d33e b33f 403e 5e09 debe 6788 b0bf
000000e0: 7ab8 303e f887 86bf 8abd 54be 8102 bfbe
000000f0: c175 4ebe d4d8 f8bd c679 efbd f243 2a3d
00000100: b12b 15be 8463 d63f ca3d be3e 8300 003e
00000110: 7ddd a23f 6a67 0fbe 5c3d 173f c643 183f
00000120: e61e b6be 1686 31bf 3e94 f43f 2ecb 883d
00000130: 2392 bb3e d6fc 673e 5030 83bd 5159 56be
00000140: ff41 7e3e 38da 083f 1d70 80be d65e e4be
00000150: 3605 8c3e 94ea 883e 7c5b 19be 0635 5ebe
00000160: 13e3 e6bd a60c a73f 3754 1b3f 268a 913e
00000170: 95b9 ab3f b221 823e 30ea a63f 92b9 fdbe
00000180: 195b 0f3d 7fc8 ab3d cedf 04be 7c14 dfbe
00000190: 85be f1bd 8d2b 02be 7833 77be 8cf1 d1be
000001a0: 75d2 843f 8ba8 23bf 0b16 af3d 55c8 1a40
000001b0: b005 a0be 44c1 bd3f 989e afbe 33f9 95bf
000001c0: 3d54 1b3f 5474 0fbe e622 b9bf 5694 f73f
000001d0: 6616 cc3e 3503 1bbf 7fec d13f 3c55 92be
000001e0: 3d18 1e3f 6788 b13e fa80 e73e ac7f 593f
000001f0: 478e 01bf 404e 0f3f bbfe 143f 58b2 da3e
00000200: 8e3e 3e3e 6e16 8abf 9a05 2cbe c91a 0e3f
00000210: 6002 f53f 2790 b13f 49b0 a43f aad2 e63d
00000220: 1619 2abf d60a 33be a39b 58bf 74d2 96bc
00000230: 74be 9f3f c69b cabe 6d5d c53d ed76 f63e
00000240: aa26 63bd c2b9 543f b0e9 e3bd f24f a73f
00000250: 1118 4bbf 89b2 a8be 1a3a 0640 e557 cf3d
00000260: 21f1 debe b040 ebbe 12bb 83bf 85c0 c4bf
00000270: 38e9 da3f 3e31 613e 24ac 0cbf 6f53 943e
00000280: 7dfd 5dbf 56ee 20be fd41 1dbf 5132 0fbf
00000290: 81fb 48bf 6fca 18bf 01ee ea3e a842 7a3e
000002a0: 3f33 01bf 0afa febe d12e 26be fd2e abbc
000002b0: 7d9d 8c3d b90b 033f 350f e1be 50fd a2be
000002c0: 24f1 bd3e e279 c23f 6dd1 fe3f d88f 99bf
000002d0: 771d 643e 8666 a23e 16b6 a03e 369b 963f
000002e0: 62f1 b73d 4101 3abe 6fc5 d53e fc32 d43e
000002f0: 0a47 6dbf 8aef 843e 7690 8d3f 9696 0dbd
00000300: 3f49 8d3e c8f8 9b3f ba5b 2cbf 4dde a23f
00000310: 9072 d0bf 4ae8 6ebf db5e 79bf 079b 4abe
00000320: 5bdf 193f 4b95 603f ae8f aebe 9843 353f
00000330: 1967 c93d 3e9f 5d3f faa7 adbe 08ac 9e3f
00000340: 3615 aebe 4f14 853f 463c 243f 267b 7a3f
00000350: 7223 16be 38fb 303f 348b fb3c 716f 4abf
00000360: d6a1 aebe 1fb4 d23f bf28 3d3f 93ae c0be
00000370: e645 ac3f 69bb aebe 0fad f43f ea05 7cbe
00000380: f8fc 213f 007f 593f 5307 8f3f 4466 a73e
00000390: 1755 5f3f 7cb2 01bf 2345 463d 8a34 1840
000003a0: 6fc6 4e3e 78c7 8a3b 080d 3e3f 9cfa 133f
000003b0: 2d25 da3f 16fe 2fbe 7cea 213f 2034 8540
000003c0: 084e afbe e398 c23e d3bb 333f c0bc 243f
000003d0: 2bd8 153e 660c 2bbe 9c18 aebe d4dd 94bf
000003e0: d66c 203f e998 10bf b81d a73f 4c64 05bd
000003f0: a2b2 193e c993 adbe 97f1 adbe 2693 aebe
0.13043943 0.33932126 -0.60520273 -0.095915705 -0.86748177 -1.4270049 -0.3074724 -0.45178562
-0.27698615 -0.38137445 -0.4410482 -0.25531903 0.35320023 -0.91630197 -0.119693816 -0.09532705
-0.44101804 0.2767494 1.1722633 1.1311682 -1.1742585 1.1719941 0.46523058 1.0380723
-0.4403209 1.0880245 1.2738124 -0.53135264 -0.23980306 -0.5411976 -0.55555797 -0.47693497
-0.36190677 -0.8638664 -0.7949272 -0.06871432 1.0908129 -0.30806494 0.0481299 0.8759177
-0.70092756 1.296367 -0.31051546 0.32715267 0.9112469 0.07061794 0.58097446 0.6283247
-0.4409464 0.20223927 0.32984158 1.2361443 0.4125237 0.187743 -0.43366522 -1.3791627
0.17257872 -1.0510244 -0.20775428 -0.37306598 -0.20162107 -0.12150732 -0.11693148 0.041568704
-0.14567448 1.674912 0.37156516 0.12500195 1.2723843 -0.14004293 0.59078 0.59478414
-0.3557045 -0.69345224 1.910774 0.066793784 0.3663493 0.22655043 -0.06405699 -0.20932509
0.24829863 0.53457975 -0.25085536 -0.44603604 0.27347726 0.2674147 -0.14976305 -0.21699914
-0.1127378 1.3050735 0.60675377 0.2842571 1.341601 0.25416332 1.3040218 -0.4955564
0.034998987 0.08387851 -0.12976 -0.43570316 -0.11803917 -0.12711926 -0.24140728 -0.41004598
1.0376726 -0.6392905 0.08549126 2.4184773 -0.3125434 1.4824605 -0.34300685 -1.1716675
0.6067541 -0.1400922 -1.4463775 1.9342144 0.3986084 -0.6055177 1.6400298 -0.28580654
0.61755735 0.3467438 0.4521559 0.84960437 -0.50607723 0.55978775 0.5820119 0.4271419
0.1857855 -1.0788095 -0.16799012 0.5550962 1.914135 1.3872117 1.2866298 0.1127065
-0.6644453 -0.17484602 -0.8461248 -0.018410899 1.2479997 -0.3957197 0.0963696 0.48137608
-0.055456795 0.83095944 -0.11128557 1.3071272 -0.793336 -0.32948712 2.0972962 0.101241864
-0.43543342 -0.4594779 -1.0291464 -1.5371252 1.7102423 0.2199144 -0.54950166 0.28969905
-0.8671492 -0.15715918 -0.61428815 -0.5593615 -0.78508765 -0.5968389 0.45884708 0.2443949
-0.5046882 -0.4980014 -0.16228797 -0.02089643 0.06865976 0.5118976 -0.43956915 -0.31833887
0.37098038 1.5193446 1.9907662 -1.1997023 0.22276865 0.31718844 0.3138892 1.1766117
0.08981587 -0.18164541 0.41752192 0.41445148 -0.9268652 0.25964004 1.1059711 -0.034567438
0.27594945 1.2185297 -0.67327464 1.2724091 -1.6284962 -0.93323195 -0.9741036 -0.197857
0.6010644 0.87727803 -0.34093994 0.70806265 0.098341174 0.8657111 -0.33917218 1.239625
-0.34000558 1.0396823 0.6415447 0.9784416 -0.14661959 0.6913333 0.030706026 -0.79076296
-0.34107846 1.6461219 0.738903 -0.3763319 1.3458831 -0.34127358 1.9115313 -0.24611631
0.63276625 0.8495941 1.117411 0.3269521 0.8723921 -0.5066297 0.048405778 2.3782067
0.20192884 0.0042352043 0.74238634 0.57804275 1.7042595 -0.1718677 0.6324842 4.162613
-0.3423922 0.38007268 0.7020847 0.6435051 0.14633243 -0.16703948 -0.3400315 -1.1630197
0.6266607 -0.5648332 1.3055944 -0.032566354 0.1500955 -0.33901814 -0.3397338 -0.3409664

l1.bias f4 [8]
00000000: 0bb0 b93e 319e f53c 4024 a33e 633b 3b3f
00000010: 9ed3 153f 3a41 5e3f ef44 623f a8e2 9c3f
0.36267123 0.029982658 0.31863594 0.7313749 0.5852603 0.8681828 0.88386434 1.225667

l2.weight f4 [8, 8]
00000000: 1aa2 debe ccca fe3f 1e05 93bf 3d37 34bf
00000010: 1f40 053f fd73 8d3f 865f c0be 4507 923f
00000020: e210 953d 6268 7e3f 86eb 11bf 09b2 df3e
00000030: 368d a13f 350e 0a40 55c0 bd3e 0a20 0fbf
00000040: e3d3 cd3f 11ba 5b3e bb4b 6dbf 3c98 623e
00000050: b2ca e03f bc66 a2bf 2ebd 3240 4f4e 873e
00000060: 27ab ecbf a679 63bf 8d0c c3be 580a f63f
00000070: 8ee5 733f 1ce4 d63e f6a7 3abf 26fe 0040
00000080: 58a7 8b3d 9646 463e edb0 173f cdd8 a5bf
00000090: 1fca 8abf b017 853d ebd2 1740 2148 fc3f
000000a0: 6f2b 58be 9ca9 e5bd 5a6f bb3d 3ec0 e6bd
000000b0: bca6 de3d 90fe 8cbe 1f8a b7be 9480 f4bc
000000c0: a027 cf3f 3d37 713f 8b99 0940 0dda e83e
000000d0: 8c9a 913e 79d5 7fbf 6607 fbbe 48fe 753f
000000e0: 7d1d e53f 9b48 173f cb84 21bf c90d f73f
000000f0: 379c d2bf b27e 913e b04c 3d3e 8b9a 3a3f
-0.4348305 1.9905639 -1.1485937 -0.70396787 0.52050966 1.1051022 -0.3757288 1.1408468
0.07278611 0.99378026 -0.57000005 0.43690518 1.2621219 2.1571171 0.370608 -0.5590826
1.6080288 0.21457697 -0.9269368 0.22128385 1.7561858 -1.2687602 2.7927966 0.26426932
-1.8489732 -0.88857496 -0.38095513 1.9221907 0.9527215 0.4197091 -0.7291254 2.015512
0.06819028 0.19362864 0.5925434 -1.2956787 -1.0842932 0.06498659 2.3722484 1.9709512
-0.21110319 -0.11213991 0.09152098 -0.11267136 0.10871646 -0.27537966 -0.35847566 -0.029846467
1.6183968 0.9422491 2.1499965 0.4547886 0.28438222 -0.9993511 -0.49029082 0.9609113
1.7899624 0.5909516 -0.6309325 1.9301082 -1.6453923 0.28416973 0.18486285 0.72892064

l2.bias f4 [8]
00000000: 75bd 84bd eb79 0f3f 1fd2 8d3e 6b37 903f
00000010: c557 593f 2dd9 69be 401f 813c c5c3 693e
-0.064814486 0.5604541 0.27699372 1.1266912 0.8489955 -0.22836752 0.015761971 0.22828586

l3.weight f4 [41, 8]
00000000: 53cd b0c0 d593 e1bf 1827 723c e81b 0b3f
00000010: d351 6c3e 91fa 92be 76a6 5fbf 82c4 653e
00000020: c82e 93c0 f198 6abf e547 61c0 56f7 4f3f
00000030: 31ac d6bf 3771 a9bd d0d3 5dbf 4c5d c23f
00000040: 69cb 62c0 7c47 44c0 5db3 783f 82df 07bf
00000050: dfe1 013f 45d1 cb3d 9301 1a3f 8970 85c0
00000060: 99b8 5f3e af26 2d3e dc12 8cbd 239a e1bf
00000070: 147c 8c3f d78d a0bc 4372 0cc0 1fdc 0fc0
00000080: c52d 323f 6152 643c 5bbd 35c0 5a06 96be
00000090: cc34 80c0 e68b ba3d 2178 37c0 86ee 9c3f
000000a0: 7b5b cf3e bb8c d63e 913e 2bc0 57eb 83bf
000000b0: 36e2 4d3f 0511 43bd 200a 76c0 fc8d 563e
000000c0: fcd5 f13e 8907 6ac0 4c13 ecbf fde4 64be
000000d0: 9a5f c93e cc73 6abe 11e5 5e3e 3050 92bf
000000e0: 6c81 913e 0890 edbe f20c abbf 1ee0 db3f
000000f0: 98ea 4ebf eaa1 2bbe f755 94c0 77ee dfbe
00000100: 1813 8a3f 64be 9abf 40d4 12bf be6f 163d
00000110: 6fa9 e7bf 8be9 b5bd f8c4 93be dcf8 ea3e
00000120: 1374 d9bf 5267 0fbf 790b 923f 38f7 bc3e
00000130: 2b14 6a3e 9e8c 963e a11a 23c0 a1c3 3bbf
00000140: 8727 48bc da6a e9bf c089 dbbf d5a1 933f
00000150: 3e46 643f be93 dabb 717e 25bf 9a7a 93c0
00000160: 1d42 00bf 3ba9 4abf b999 f43e 40d8 a3bf
00000170: 4865 b43f 3d5e 30bd fee4 a4be f33e abc0
00000180: fc50 3bbf 0e9d d8bf b2f5 533f 4af3 9d3f
00000190: a01d 7cc0 d644 ff3d 2209 7bbf 3812 edbe
000001a0: 0e3f 923e 21c7 16bf 3e74 a13d d655 99bf
000001b0: b2be 4a3e 2838 89be 58b7 bdbf baed c03e
000001c0: cda7 b3bf ab0f 57bc d7cc c8be ae30 3ebf
000001d0: 2afc 4dbd a666 01be c8ef cb3d 2899 f73e
000001e0: 9688 36be b889 49c0 317c c03e 11ba bd3e
000001f0: 2e03 4b3f 93b0 893e 1b09 69bf 5e51 17c0
00000200: c6c9 bdbe 0e78 043f 3a3f 243f 3dec 9cc0
00000210: a587 ef3d aeef 923e d54f 43bf c55c a2bf
00000220: 0a52 77c0 9901 e7bf 2263 533f 2a1f 7ec0
00000230: ef1d a7bf fb93 67bd 7b22 513f 622c 2bbf
00000240: 5c24 f8bf 6ef4 86c0 add6 c6bf 465c a03f
00000250: 9e91 b5be 79ee 6bbe 820f 20be 8942 27be
00000260: 9919 29bf 4aa6 28c0 7e4c 023f 5457 90bf
00000270: 915a 8d3f 7fdb 993e e7ed 4fbf 4135 5c3d
00000280: d87a 9fbf 4c08 bbbe b8f1 17bf 5149 66bf
00000290: 15b9 e43e 1061 c7bd a6d0 803e 77b7 d43d
000002a0: 47cc 693e b5ab c2bf 6101 373f 303d 62bf
000002b0: 5460 6dbf 76fb b5bd c563 dcbe bafe b33e
000002c0: f755 d9bd b5f1 d43e 48e3 fcbf 9007 213e
000002d0: 41f6 d1be f2a9 463e 544c 523e e5c1 9ebf
000002e0: 21fa c3be e994 823e de76 9c3f 5c1b 503e
000002f0: 9b93 29c0 91df fe3d 9172 86c0 47f9 33c0
00000300: 4db1 863f 41d0 b9be 5207 dcbf ee15 2cbf
00000310: 8bcc 8b3e 86ae 61bd a3b8 5dbf 6f4e a0be
00000320: 2596 92c0 e75e 90be a98f a73f 8f17 5fc0
00000330: a844 973e fd18 953e 20b6 4d3d 0f3d 62c0
00000340: d9ee bfbf 5c50 33bf 226a 953f 8902 babf
00000350: 4cb5 d6bd ea47 0cbd a77c 733c 21ba 90bf
00000360: 10b9 53c0 3b4c 3cc0 d04c 0ac0 1705 783e
00000370: bd74 ab3f 3d77 d7bd 0129 d83e a102 3cc0
00000380: 65cc 8dc0 2cc8 afc0 f420 4d3e 2535 dfbe
00000390: 9add 1f3f 2577 913e 47cc ae3e 01a2 d0be
000003a0: 7b0c 9dbe f93d 47bf eec6 dabf 640c 1e3f
000003b0: 8df2 8c3f bfbe 0c3e b0fe bbbf 2e72 0b3f
000003c0: fbf8 21bd a051 d23e 393e 8fbf 5594 c63e
000003d0: c763 32c0 1fd5 85be ae3c 8cbe 9ce2 7abf
000003e0: 7340 af3e 9acb 973c d91a 8abf bd14 94c0
000003f0: ba2f c23e 5a6a 40be 7445 f6be e407 603e
-5.525064 -1.762324 0.0147798285 0.54339457 0.23078088 -0.28706792 -0.87363374 0.22438243
-4.5994606 -0.9163962 -3.520013 0.8123678 -1.6771299 -0.08273547 -0.86651325 1.5184722
-3.5436652 -3.066863 0.97148687 -0.5307542 0.50735277 0.09952024 0.6015865 -4.169987
0.21847762 0.16909288 -0.06839535 -1.7625164 1.0975366 -0.019598885 -2.194474 -2.2478101
0.6960109 0.013935656 -2.8396823 -0.2930172 -4.006445 0.09108715 -2.866707 1.2260292
0.40499482 0.41904244 -2.6756938 -1.0306195 0.80423295 -0.047623653 -3.844368 0.209526
0.4723357 -3.65671 -1.8443389 -0.22352977 0.3933075 -0.22895736 0.2176707 -1.1430721
0.28419054 -0.4639895 -1.3363326 1.717777 -0.8082671 -0.16760984 -4.6354938 -0.43736622
1.0787077 -1.2089353 -0.5735512 0.03672766 -1.8098582 -0.088824354 -0.28861213 0.4589299
-1.6988548 -0.5601703 1.1409751 0.36907363 0.22859256 0.29404157 -2.5485003 -0.7334538
-0.012216455 -1.8235734 -1.7151413 1.1533762 0.8916968 -0.0066704443 -0.6464606 -4.608716
-0.5010088 -0.79164475 0.4777353 -1.2800369 1.4093409 -0.043058623 -0.32205957 -5.351434
-0.7317045 -1.6922929 0.82796776 1.2339871 -3.9393082 0.12464301 -0.9806081 -0.46302962
0.28563732 -0.58897597 0.078834996 -1.197932 0.19799307 -0.26800656 -1.4821577 0.3768137
-1.4035584 -0.013126294 -0.3921878 -0.7429303 -0.05028931 -0.12636814 0.09957844 0.48359036
-0.17825541 -3.1490307 0.3759475 0.3705602 0.79301727 0.26892528 -0.9102952 -2.3643413
-0.37068003 0.5174569 0.64158976 -4.9038377 0.11695794 0.28698486 -0.7629369 -1.2684561
-3.8643823 -1.8047363 0.8257314 -3.970652 -1.305601 -0.05653761 0.8169324 -0.668646
-1.9386096 -4.2173376 -1.5534264 1.252816 -0.3546266 -0.23040189 -0.15630916 -0.16333975
-0.66054684 -2.6351495 0.5089797 -1.127665 1.1043264 0.30050275 -0.81222385 0.053761724
-1.2459364 -0.36529768 -0.5935321 -0.8995562 0.44672456 -0.0973531 0.25159186 0.10386556
0.22831832 -1.5208651 0.7148648 -0.88374615 -0.9272511 -0.08885853 -0.43044868 0.35155278
-0.106120996 0.41590658 -1.9756861 0.15725541 -0.4100819 0.19400766 0.2053693 -1.2402922
-0.3827677 0.25504234 1.2223775 0.20322937 -2.6496341 0.12444986 -4.201485 -2.8120897
1.0522858 -0.36291698 -1.7189734 -0.6722096 0.2730449 -0.05509808 -0.8660986 -0.3130984
-4.580828 -0.28197405 1.3090717 -3.485813 0.29544568 0.29120627 0.050222516 -3.5349767
-1.4994766 -0.70044494 1.1673014 -1.4532024 -0.104837984 -0.03424827 0.014861262 -1.1306802
-3.3081703 -2.9421527 -2.1609383 0.24220692 1.3395001 -0.1052079 0.42218783 -2.9376605
-4.4312005 -5.493185 0.20032102 -0.43595234 0.6244751 0.28411213 0.34140226 -0.407486
-0.30673584 -0.7782894 -1.7091959 0.61737657 1.1011521 0.13744639 -1.46871 0.544711
-0.039544087 0.410779 -1.1190864 0.38785043 -2.78734 -0.2613916 -0.27390045 -0.9800203
0.34228858 0.018529702 -1.0789443 -4.6275315 0.37927037 -0.1879057 -0.48099864 0.2187801

l3.bias f4 [41]
00000000: caae 8fbf b7c0 54bf 93a2 10be e5e6 e7be
00000010: f46e 57be fcad 43bd f404 c2be 4cd5 d43e
00000020: cc4a 94bf 2d48 233e 1067 0fbf 1797 69be
00000030: 1082 32bf dcc4 57bf f9c5 1bbc b750 90bd
00000040: e6da 00bf d49c f4bd cee2 4f3c 96c8 36be
00000050: ff09 293d 22fc acbf 00e2 213a 1849 0abb
00000060: 6324 babf 844a e9bd 6b8e 91bf 223f 083f
00000070: ce4b e5be 6483 8ebe 018c a63e d7e1 b0be
00000080: 91e8 043d 9261 8fbe c21d 8a3e 5f39 8cbf
00000090: ee28 cbbd a4ce c3be 9eec 91bf 2148 dcbe
000000a0: c348 5b3c
-1.1225216 -0.8310656 -0.14124517 -0.45293346 -0.21038419 -0.047773346 -0.37894404 0.41568983
-1.1585326 0.15945502 -0.56016636 -0.22811542 -0.6972971 -0.8428476 -0.00950765 -0.07046645
-0.5033401 -0.11943975 0.012688352 -0.17849955 0.0412693 -1.3514445 0.0006175339 -0.0021100696
-1.4542354 -0.11391166 -1.1371588 0.53221333 -0.44784397 -0.27834618 0.3252869 -0.34547302
0.032448355 -0.28004128 0.26975828 -1.0955008 -0.09919916 -0.38243592 -1.1400335 -0.4302378
0.013384047
